…
1071 test sequences
Pad data to be uniformly long (samples length x time)
x_train shape: (9624, 64)
x_test shape: (1071, 64)
_________________________________________________________________
Layer (type)                 Output Shape              Param #
=================================================================
embedding_1 (Embedding)      (None, None, 300)         5461200
_________________________________________________________________
conv1d_1 (Conv1D)            (None, None, 32)          57632
_________________________________________________________________
global_max_pooling1d_1 (Glob (None, 32)                0
_________________________________________________________________
dense_1 (Dense)              (None, 64)                2112
_________________________________________________________________
dropout_1 (Dropout)          (None, 64)                0
_________________________________________________________________
activation_1 (Activation)    (None, 64)                0
_________________________________________________________________
dense_2 (Dense)              (None, 1)                 65
_________________________________________________________________
activation_2 (Activation)    (None, 1)                 0
=================================================================
Total params: 5,521,009
Trainable params: 5,521,009
Non-trainable params: 0
_________________________________________________________________
Train on 9624 samples, validate on 1071 samples
Epoch 1/10
9624/9624 [==============================] - 6s 607us/step - loss: 0.8947 - acc: 0.6727 - val_loss: 0.6982 - val_acc: 0.7656
Epoch 2/10
…
